…
ent_id": "aaa21e9b-a95f-4dd7-b3fd-f47a35f0ef03", "request_id": "85855feb0f0f24b7-LHR", "timestamp_": "absolute"}, "recipient": "all"}, "parent": "aaa21e9b-a95f-4dd7-b3fd-f47a35f0ef03", "children": ["aaa2bf8a-8447-4759-81b1-c0b5529c7c71"]}, "aaa2bf8a-8447-4759-81b1-c0b5529c7c71": {"id": "aaa2bf8a-8447-4759-81b1-c0b5529c7c71", "message": {"id": "aaa2bf8a-8447-4759-81b1-c0b5529c7c71", "author": {"role": "user", "name": null, "metadata": {}}, "create_time": 1708512996.583977, "update_time": null, "content": {"content_type": "text", "parts": ["GPT2LMHeadModel(\n  (transformer): GPT2Model(\n    (wte): Embedding(50257, 1600)\n    (wpe): Embedding(1024, 1600)\n    (drop): Dropout(p=0.1, inplace=False)\n    (h): ModuleList(\n      (0-47): 48 x GPT2Block(\n        (ln_1): LayerNorm((1600,), eps=1e-05, elementwise_affine=True)\n        (attn): GPT2Attention(\n          (c_attn): Conv1D()\n          (c_proj): Conv1D()\n          (attn_dropout): Dropout(p=0.1, inplace=False)\n          (resid_dropout): Dropout(p=0.1, inplace=False)\n        )\n        (ln_2): LayerNorm((1600,), eps=1e-05, elementwise_affine=True)\n        (mlp): GPT2MLP(\n          (c_fc): Conv1D()\n          (c_proj): Conv1D()\n          (act): NewGELUActivation()\n          (dropout): Dropout(p=0.1, inplace=False)\n        )\n      )\n    )\n    (ln_f): LayerNorm((1600,), eps=1e-05, elementwise_affine=True)\n  )\n  (lm_head): Linear(in_features=1600, out_features=50257, bias=False)\n)"]}, "status": "finished_successfully", "end_turn": null, "weight": 1.0, "metadata": {"request_id": "858e76b37bb606ed-LHR", "timestamp_": "absolute", "message_type": null}, "recipient": "all"}, "parent": "6ff9ce83-8a72-4bd1-98bc-b321e2933c21", "children": ["18035dc3-d41b-4282-b94c-b710b3350387"]}, "18035dc3-d41b-4282-b94c-b710b3350387": {"id": "1
…
, "timestamp_": "absolute"}, "recipient": "all"}, "parent": "18035dc3-d41b-4282-b94c-b710b3350387", "children": ["aaa288b7-02c8-4421-a8ef-72f969ec04c6"]}, "aaa288b7-02c8-4421-a8ef-72f969ec04c6": {"id": "aaa288b7-02c8-4421-a8ef-72f969ec04c6", "message": {"id": "aaa288b7-02c8-4421-a8ef-72f969ec04c6", "author": {"role": "user", "name": null, "metadata": {}}, "create_time": 1708598720.153924, "update_time": null, "content": {"content_type": "text", "parts": ["One block of attention of BERT looks like this : \n\nBertLayer(\n  (attention): BertAttention(\n    (self): BertSelfAttention(\n      (query): Linear(in_features=312, out_features=312, bias=True)\n      (key): Linear(in_features=312, out_features=312, bias=True)\n      (value): Linear(in_features=312, out_features=312, bias=True)\n      (dropout): Dropout(p=0.1, inplace=False)\n    )\n    (output): BertSelfOutput(\n      (dense): Linear(in_features=312, out_features=312, bias=True)\n      (LayerNorm): LayerNorm((312,), eps=1e-12, elementwise_affine=True)\n      (dropout): Dropout(p=0.1, inplace=False)\n    )\n  )\n  (intermediate): BertIntermediate(\n    (dense): Linear(in_features=312, out_features=1200, bias=True)\n    (intermediate_act_fn): GELUActivation()\n  )\n  (output): BertOutput(\n    (dense): Linear(in_features=1200, out_features=312, bias=True)\n    (LayerNorm): LayerNorm((312,), eps=1e-12, elementwise_affine=True)\n    (dropout): Dropout(p=0.1, inplace=False)\n  )\n)\n\nPlease explain me the differences with gpt2"]}, "status": "finished_successfully", "end_turn": null, "weight": 1.0, "metadata": {"request_id": "8596a38fdc17774a-LHR", "timestamp_": "absolute", "message_type": null}, "recipient": "all"}, "parent": "d5bb0cb9-2806-4af5-a5bb-e4a86584bf0b", "children": 
…
"aaa27652-4e59-4894-badb-a4b1506902c5", "request_id": "8596b3ef5de6dd2b-LHR", "timestamp_": "absolute"}, "recipient": "all"}, "parent": "aaa27652-4e59-4894-badb-a4b1506902c5", "children": ["aaa2645a-3074-4296-8883-a55c9e750ae5"]}, "aaa2645a-3074-4296-8883-a55c9e750ae5": {"id": "aaa2645a-3074-4296-8883-a55c9e750ae5", "message": {"id": "aaa2645a-3074-4296-8883-a55c9e750ae5", "author": {"role": "user", "name": null, "metadata": {}}, "create_time": 1708599897.989919, "update_time": null, "content": {"content_type": "text", "parts": ["MistralForCausalLM(\n  (model): MistralModel(\n    (embed_tokens): Embedding(32000, 4096)\n    (layers): ModuleList(\n      (0-31): 32 x MistralDecoderLayer(\n        (self_attn): MistralSdpaAttention(\n          (q_proj): Linear(in_features=4096, out_features=4096, bias=False)\n          (k_proj): Linear(in_features=4096, out_features=1024, bias=False)\n          (v_proj): Linear(in_features=4096, out_features=1024, bias=False)\n          (o_proj): Linear(in_features=4096, out_features=4096, bias=False)\n          (rotary_emb): MistralRotaryEmbedding()\n        )\n        (mlp): MistralMLP(\n          (gate_proj): Linear(in_features=4096, out_features=14336, bias=False)\n          (up_proj): Linear(in_features=4096, out_features=14336, bias=False)\n          (down_proj): Linear(in_features=14336, out_features=4096, bias=False)\n          (act_fn): SiLU()\n        )\n        (input_layernorm): MistralRMSNorm()\n        (post_attention_layernorm): MistralRMSNorm()\n      )\n    )\n    (norm): MistralRMSNorm()\n  )\n  (lm_head): Linear(in_features=4096, out_features=32000, bias=False)\n)\n\nHere is the mistral 7b model, no position encoding ?\nAnd.... what are rotary embedding and rmsnorm ?"]}, "status": "finished_successfully", "end_turn": null, "weight": 1.0, "metadata": {"request_id": "8596c0512980653e-LHR", "timestamp_": "absolute", "message_type": null}, "recipient": "all"}, "parent": "fde3c447-5022-4000-9dd7-16a84c890775",
…
: "absolute"}, "recipient": "all"}, "parent": "f991e259-c07f-4f91-852b-de157c040383", "children": ["aaa2a52c-f890-4c75-a510-7bce28c8e235"]}, "aaa2a52c-f890-4c75-a510-7bce28c8e235": {"id": "aaa2a52c-f890-4c75-a510-7bce28c8e235", "message": {"id": "aaa2a52c-f890-4c75-a510-7bce28c8e235", "author": {"role": "user", "name": null, "metadata": {}}, "create_time": 1708615032.962881, "update_time": null, "content": {"content_type": "text", "parts": ["Super, mais dans cette achitecture, ces matrice correspondent \u00e0 quoi ? \n\nOpenAIGPTLMHeadModel(\n  (transformer): OpenAIGPTModel(\n    (tokens_embed): Embedding(40478, 768)\n    (positions_embed): Embedding(512, 768)\n    (drop): Dropout(p=0.1, inplace=False)\n    (h): ModuleList(\n      (0-11): 12 x Block(\n        (attn): Attention(\n          (c_attn): Conv1D()\n          (c_proj): Conv1D()\n          (attn_dropout): Dropout(p=0.1, inplace=False)\n          (resid_dropout): Dropout(p=0.1, inplace=False)\n        )\n        (ln_1): LayerNorm((768,), eps=1e-05, elementwise_affine=True)\n        (mlp): MLP(\n          (c_fc): Conv1D()\n          (c_proj): Conv1D()\n          (act): NewGELUActivation()\n          (dropout): Dropout(p=0.1, inplace=False)\n        )\n        (ln_2): LayerNorm((768,), eps=1e-05, elementwise_affine=True)\n      )\n    )\n  )\n  (lm_head): Linear(in_features=768, out_features=40478, bias=False)\n)"]}, "status": "finished_successfully", "end_turn": null, "weight": 1.0, "metadata": {"request_id": "859831d2d9453c87-CDG", "timestamp_": "absolute", "message_type": null}, "recipient": "all"}, "parent": "53f5fd97-0207-4c55-a29c-122617987f37", "children": ["7204db6b-a0ad-4d10-acb5-dfd30ed20c95"]}, "7204db6b-a0ad-4d10-acb5-dfd30ed20c95": {"id": "72
…
l_slug": "gpt-4", "parent_id": "aaa2fa64-8889-4438-9ad7-cd03678a462e", "request_id": "855437f409f86317-LHR", "timestamp_": "absolute"}, "recipient": "all"}, "parent": "aaa2fa64-8889-4438-9ad7-cd03678a462e", "children": ["aaa2219f-afd8-4bd9-b493-62a4d8f38cce"]}, "aaa2219f-afd8-4bd9-b493-62a4d8f38cce": {"id": "aaa2219f-afd8-4bd9-b493-62a4d8f38cce", "message": {"id": "aaa2219f-afd8-4bd9-b493-62a4d8f38cce", "author": {"role": "user", "name": null, "metadata": {}}, "create_time": 1707905281.905006, "update_time": null, "content": {"content_type": "text", "parts": ["GPT2Model(\n                 (wte): Embedding(50257, 1600)\n                 (wpe): Embedding(1024, 1600)\n                 (drop): Dropout(p=0.1, inplace=False)\n                 (h): ModuleList(\n                   (0-47): 48 x GPT2Block(\n                     (ln_1): LayerNorm((1600,), eps=1e-05, elementwise_affine=True)\n                     (attn): GPT2Attention(\n                       (c_attn): Conv1D()\n                       (c_proj): Conv1D()\n                       (attn_dropout): Dropout(p=0.1, inplace=False)\n                       (resid_dropout): Dropout(p=0.1, inplace=False)\n                     )\n                     (ln_2): LayerNorm((1600,), eps=1e-05, elementwise_affine=True)\n                     (mlp): GPT2MLP(\n                       (c_fc): Conv1D()\n                       (c_proj): Conv1D()\n                       (act): NewGELUActivation()\n                       (dropout): Dropout(p=0.1, inplace=False)\n                     )\n                   )\n                 )\n                 (ln_f): LayerNorm((1600,), eps=1e-05, elementwise_affine=True)\n               )),\n              ('lm_head',\n               Linear(in_features=1600, out_features=50257, bias=False))]),\n\n\nThis is gpt2 architecture, why is there 2 embeddings layer ?"]}, "status": "finished_successfully", "end_turn": null, "weight": 1.0, "metadata": {"request_id": "855481eacb5a7753-LHR", "timestamp_": "absolute", "message_type": 
…
